model_antutu.pth (torch, 70972 bytes, 7 tensors)

model.0.weight f4 [64, 3]
00000000: 09c6 0d3f 1806 6bbe 9d4e 253f a7a2 06bf
00000010: ed87 ccbe 2ea9 c73e 4143 87be 8744 66be
00000020: b63f 1dbe 8838 08bf 59ab bc3e 4b3c 8d3e
00000030: 7ee7 b6be cf01 ecbe 9d06 323f ec72 2c3c
00000040: dd3f 173d ffa5 d5bd d32b 113f 5837 58bd
00000050: 0d00 6dbf 61bd ebbd c2a1 f5be 3a83 3fbe
00000060: 9b9c 4ebd 8200 34be 08f0 d5be 52eb 283d
00000070: 4299 07bf 52c1 40be 977e 94be 1974 c8bd
00000080: a251 bebe 65b6 d63d dddc 8d3c 8f8c 92be
00000090: caf3 0ebe c8f9 b0be caae 44bd 2cb3 00be
000000a0: ea82 4dbe 2349 c03b 96f3 113f fc63 85be
000000b0: b68e 03bf a51f e03e d9c9 bfbe 99fe 2d3e
000000c0: d08e 043f 856a c4bb 673e 43bf d8d3 833e
000000d0: 5e3a 663e 9268 d0be 055a 5f3e d731 51be
000000e0: 206a 163f 8273 28be b5bc 8bbb 7380 9139
000000f0: 87cf 2c3e eb38 b73e 60b2 02bf 3262 d53e
00000100: a1e9 dc3e 8058 d4be 9f91 ca3e 419a d3be
00000110: b75a 2cbf 8745 993d 80cc 3f3e bae6 cc3e
00000120: 8cf2 2ebe 3a24 10bf 736e fe3e 66cc bfbe
00000130: 812f 343e c294 0fbf 607b 923d 4713 cbbe
00000140: a5fe ea3e 1f4a b6be ebfa 8bbb 00e1 0e3f
00000150: d3f0 0dbe 76e7 ca3e 603d 0a3f 7fe5 f33e
00000160: f2bb 17bf 513e f63e 8eb9 6c3e 82ee c03d
00000170: 0af4 073f 6297 363e 6a1c b83e c055 0a3f
00000180: da08 c23e 3dbf 94be 59bc 213f f725 84be
00000190: 0f8a ee3e 3da0 aa3e 3210 6abd 3882 25bf
000001a0: fdfe b73e c909 0bbe 0c17 b7bd 540e 193f
000001b0: d1fc 52bd de68 a5be c7f9 b63e c6e8 a7be
000001c0: 5a61 61be bdf6 133f 84bd f93d cdea 01bf
000001d0: a511 973e fc1f e1be cc4f 89be ff8a 2bbf
000001e0: fd39 f6be 71e7 713e 6080 ea3e e4be 08be
000001f0: 17a0 02bf 0425 b83e 7e91 b3bc d11a 853e
00000200: 77ef 973e 8b46 edbe 9e6b ef3e f11e 653e
00000210: 3ccd 94be 9cdb 333e 1dbd d13e db9b 07be
00000220: 40d3 a93e 3d2f 733e 4e7b 18bc 581e 0abf
00000230: 1412 d03e 6eed 633e 42c9 71be 96f4 24bf
00000240: 5279 063f bb21 d8be 19b4 a6be 60a3 eabd
00000250: 2dc1 893d 745b eebc 92b9 80be 8883 c4be
00000260: 8033 dc3d 4be1 10bf 6a3f 273e 4614 ea3e
00000270: 0484 e63e bb79 c13c 9f70 bc3e 2527 3abe
00000280: f660 c3be f9bb a33e 9c2b 26bd d317 a7bc
00000290: 2ee2 db3e 44f1 253e 8757 a5be 6571 7e3e
000002a0: 5313 06bf e8f9 bdbe f80a 50be 6b83 ce3e
000002b0: 871d f4be c15e 39bf fb3c edbe 3b42 003f
000002c0: a1a7 e43e ac91 cf3c e2ac 113f 0432 24bf
000002d0: 6d10 013d ac48 86be 894b c93e bfa4 db3c
000002e0: 3832 fabe 6f89 ce3e 82a5 593d a1b5 0c3c
000002f0: a59c f03e d851 113f 01e4 01bf 56eb 58be
0.553803 -0.22951543 0.6457308 -0.5259194 -0.39947453 0.3899626 -0.26418498 -0.22487079
-0.15356335 -0.5321126 0.36849478 0.27585062 -0.3572349 -0.4609513 0.6954134 0.010525446
0.03692614 -0.10432052 0.56707495 -0.052787155 -0.925782 -0.115107305 -0.47974974 -0.18702403
-0.05044232 -0.17578319 -0.41784692 0.041240044 -0.5296823 -0.18823746 -0.2900283 -0.09787769
-0.37171656 0.10484008 0.01731723 -0.28622863 -0.13960186 -0.34565568 -0.048018254 -0.12568349
-0.20069471 0.0058680936 0.5701231 -0.26052845 -0.51389635 0.43774143 -0.37458685 0.16991653
0.51780415 -0.0059941434 -0.76267093 0.2574756 0.22483203 -0.4070478 0.21811683 -0.20429169
0.58755684 -0.16450313 -0.004264439 0.00027752257 0.1687604 0.35785612 -0.5105343 0.4167648
0.43146995 -0.4147377 0.39564225 -0.41328624 -0.6732592 0.074839644 0.18730354 0.4001978
-0.17084712 -0.5630528 0.4969364 -0.3746063 0.17596246 -0.5608636 0.07152438 -0.39663145
0.45897403 -0.35603425 -0.004271855 0.5581207 -0.13861398 0.39629716 0.539999 0.4763603
-0.59271157 0.4809442 0.23117658 0.09420492 0.5310675 0.17831185 0.35959178 0.54037094
0.37897378 -0.29052153 0.6317802 -0.25810215 0.46589705 0.33325377 -0.05714435 -0.64651823
0.35936728 -0.13577951 -0.08939943 0.5978749 -0.051510636 -0.3230657 0.3573744 -0.3279478
-0.22009793 0.5779837 0.1219435 -0.507489 0.2950565 -0.43969715 -0.26818693 -0.67008966
-0.48091117 0.23623444 0.45801067 -0.13354069 -0.5102553 0.3596574 -0.021919962 0.25997022
0.29674885 -0.46342883 0.46761793 0.22375084 -0.2906283 0.17564243 0.40964594 -0.13243048
0.33168983 0.23748489 -0.009306742 -0.5395255 0.40638793 0.22258541 -0.2361193 -0.6443571
0.5252887 -0.42213234 -0.3255928 -0.114569426 0.067262985 -0.029096343 -0.2514158 -0.383816
0.1075201 -0.5659377 0.16332784 0.45718592 0.45022595 0.023617616 0.36804673 -0.18178995
-0.38159913 0.3197935 -0.040568933 -0.020397102 0.42946 0.16205317 -0.3229334 0.24847944
-0.52373236 -0.37104726 -0.20316684 0.4033464 -0.47678778 -0.7241021 -0.46335587 0.5010106
0.4465914 0.025338016 0.56904423 -0.6413882 0.031509805 -0.2622732 0.3931544 0.026811955
-0.4886644 0.4033923 0.053136356 0.008588226 0.4699451 0.5676551 -0.5073853 -0.21183524

model.0.bias f4 [64]
00000000: 8c9e 21bf e8bd d8be a763 783d 0d50 493e
00000010: c892 c13d 2c0a c43e 95c4 47be 2b99 1ebf
00000020: 8013 e43e 8eab 08bf 504c 0fbe 9305 af3d
00000030: f219 05be eca4 053e b587 bebe 8682 a3bd
00000040: df8e 993e cfa0 27be 1163 a43e 3b95 77be
00000050: 902c 163f ffce 10be 4881 04be b36a 43bd
00000060: 847d 74be 307d 64be 4d6b 8dbc 7768 e73e
00000070: 06d9 d73e 1fd9 5a3e 569d cdbe 7818 3a3e
00000080: f07e 18bf 38ec 10bc ff9f edbe 7b62 76be
00000090: e750 343e e76e 823e d193 40be c55b 40be
000000a0: 636b ab3e 18d8 65bf ff74 a83e 3b1c 08bf
000000b0: 5070 683e 1d27 17be 97ba e23e e23f 00be
000000c0: e251 10bf 36e0 debd 30b7 19be 1b65 7dbe
000000d0: 9bc9 adbd 91f9 773c 960a 953c cb0c a33e
000000e0: 49d6 6fbe 533f 323e dde9 2e3e 4f17 f33e
000000f0: 3948 8e3e d82a 8c3e e6e3 503e 89a7 82be
-0.6313255 -0.42332387 0.06064191 0.19659443 0.094518244 0.3828901 -0.19508584 -0.61952466
0.44546127 -0.5338677 -0.13993955 0.08545985 -0.12998179 0.13051194 -0.3721291 -0.0798388
0.29991814 -0.16369937 0.32106832 -0.2417802 0.58661747 -0.14141463 -0.12939942 -0.04770918
-0.23876005 -0.2231338 -0.017263079 0.45196888 0.42157763 0.21371888 -0.401591 0.18173397
-0.5956869 -0.008845381 -0.4641113 -0.24061005 0.17608987 0.25475237 -0.18806387 -0.18785007
0.33480367 -0.8978286 0.3290176 -0.53168076 0.22699094 -0.14761014 0.44282982 -0.1252437
-0.56374943 -0.108826086 -0.15011287 -0.247456 -0.08485719 0.015135185 0.018193524 0.31845698
-0.23421587 0.17406969 0.170814 0.4747872 0.27789477 0.27376437 0.20399436 -0.25518444

model.2.weight f4 [128, 64]
00000000: da0c bfbd f6c5 42be 5096 8b3c 7cbb 35ba
00000010: 9b42 28be 205c 7abd 4838 87be 2cb8 bf3d
00000020: 4e29 22bd 58c4 8b3d 2c83 1f3e 640a fabd
00000030: af59 85bd 3152 0e3e 3be5 803d 8d48 47bd
00000040: 4d49 a0bd 3c0e 3dbd 2824 bc3d f315 68bd
00000050: 483d a73d 4984 36bd 16c5 593e fb09 80bd
00000060: c4f0 763d 6a43 043e 17ab 42be d89e b7bc
00000070: 3b33 a23d 60b6 18be 6c9b c23d 2bf8 533d
00000080: a1d2 8d3d c9c0 d9bd 9e4a 78be b82f 13bd
00000090: 1013 e93d f3f3 b93d 1116 80be 8350 7dbd
000000a0: f86e 16bd 1edd 73bc 995b 843d 29a4 20bf
000000b0: 5a91 cd3a fd7a a9bd e7f9 713d 65e4 313e
000000c0: 04c9 933d 9cca 38bd f5ea d3bc ee50 363c
000000d0: 1f4a 5ebd ae12 3fbd eec8 0fbd d6fd 443d
000000e0: fd5f 7a3d 14d4 1a3d b6e7 c4bd 53f0 bc3d
000000f0: 1cfc a3bd 9bdd 92bc a777 c83d 6c61 713d
00000100: df21 6dbc 7962 66bd c804 603d ef4e 66bd
00000110: 5850 a4bd 25ac 69bd dd5c 8c3d f2b4 31bc
00000120: d86c e03a eeac bb3c 6eae 2bbd e51c 2abe
00000130: b5fb 9cbc 6dbb 44bc 08de 19bd 11e5 0cbe
00000140: c278 64be fe70 c3bd d1ee 95bd 6c84 d43c
00000150: 870d 22be 66d3 97bd cbb7 a3bd edfa 0dbe
00000160: f2be 19bd bff4 10bd 015c 78bc 33f0 303d
00000170: a03c 47be d985 3b3d 3d65 10be 23ed 0c3d
00000180: d76a c8bd 43fe c7bc 79f3 943d f497 f93b
00000190: c9e5 c73d eed0 80bc 32ec 563d 2445 32bd
000001a0: f612 fdbd f192 fbbe ed17 02be 6cd2 37be
000001b0: cd66 84bd 8624 0fbe 1b13 12bd 2a62 b7bc
000001c0: c28c d73d ad86 8fbd b083 cb3c cef5 8b3e
000001d0: 66c7 653d 1b7e 533d 9c69 573e ba1f 8c3d
000001e0: 2465 423d 2d4a abbd 7861 9b3d 2a1d 7ebe
000001f0: 3e8f d73d 1f67 823d 2349 99bd c0f7 f53d
00000200: 58bb fbbd 4522 cabd 25b2 1abd d93a 80bc
00000210: aa35 38bd 19a9 66bd 2d83 c63d 1ccb bd3d
00000220: 9504 8539 5564 13bd f548 afbd 5c3e a93d
00000230: a0a6 bb3d 7842 7a3d 5a2c ed3d c05e 73bd
00000240: 3cce 88bd 8c33 1c3d 04b1 49bd aadb 023d
00000250: 5897 363c b050 b73c c910 333d fa11 9abd
00000260: bc53 26be dd53 a13d 8d79 24be 87a3 933d
00000270: ce4b be3a 1e80 2a3c e649 abbd 9e7b c5bd
00000280: 0e42 c13d cb17 03bd eb05 84bd 8187 cc3d
00000290: ba32 11be 769e 08be e061 933d 5e02 c8bb
000002a0: 61e7 8b3d 007b 79bb 4444 95bd 2a52 b2bd
000002b0: d4c5 47bb 92d0 bd3d 259b 173d eec8 07be
000002c0: c075 5abd 0642 e5bc 6945 82bd ba84 0cbc
000002d0: 82b3 a0bd 695e 98bd bf2b c6bd 373c c93b
000002e0: 6fa3 313d 58df b03d 33c6 e03b 9644 69bd
000002f0: 7677 93bd 7c95 703d b67e d2bd 2449 febd
00000300: 3020 0a3d e770 16be 96f6 453d 36be 9fbc
00000310: 356e 00be 050d c83d ceb7 063d 5184 a53d
00000320: 31d9 943d 6b41 2abd ccfd e83d ae1d 3a3e
00000330: a71f a23d bf45 513b 278b 4fbe c275 86be
00000340: f849 533e 4e29 15bc 6b16 0dbe ae61 d53d
00000350: 9670 5a3d 6871 ccbd 4612 133e df51 36bf
00000360: 2c6b 22bd 9aa5 a83d e0a1 b6bd dbd0 c5bc
00000370: 7b57 863a 9599 85be 62d9 efbd 2bf7 febd
00000380: f84d 083d a41e b73d 9a54 11be 7a13 a53d
00000390: 7058 94bd 5f93 1dbe 6f1d c9bd 8fb1 393c
000003a0: 6dab 90bd cb3b 42bf fcc1 1dbe a0f3 a9bc
000003b0: c05c 64be d49c 56be cc75 c33d 5f51 1a3e
000003c0: 2edf b1bd 193d bbbb 6d9c d83d 2e9a 4cbf
000003d0: b1e2 dbbd 7fe1 babc ebf6 52bf d31f 9fbd
000003e0: a4c5 d73c 4262 283e 1f52 80be 9a8b 913d
000003f0: 3b11 7abb 7c09 00be 09a9 e4bc 2afe c1bd
-0.09328623 -0.19020829 0.017039448 -0.00069325394 -0.16431658 -0.061123013 -0.26410127 0.093613
-0.039590172 0.06824559 0.15577382 -0.12209013 -0.065112464 0.13898541 0.06293722 -0.048653174
-0.07826481 -0.046156153 0.09186584 -0.056661557 0.08165985 -0.04455975 0.21266589 -0.062519036
0.060288206 0.12916341 -0.19010578 -0.02241461 0.07919928 -0.1491332 0.095023006 0.051750343
0.0692494 -0.10632474 -0.24247214 -0.03593418 0.11380589 0.09079733 -0.25016835 -0.06184436
-0.03672692 -0.014884261 0.06462783 -0.6275049 0.0015683577 -0.08275411 0.059076216 0.17372282
0.07216075 -0.0451151 -0.025868872 0.011127694 -0.054269906 -0.046648674 -0.03510373 0.04809364
0.061126698 0.03779991 -0.09614508 0.09225526 -0.080070704 -0.017927935 0.09788447 0.0589308
-0.0144734075 -0.056246255 0.05469206 -0.05622762 -0.08023137 -0.057048935 0.0685365 -0.010846363
0.0017122282 0.022909608 -0.041914396 -0.16612585 -0.019162992 -0.012007576 -0.03756526 -0.13759257
-0.2231169 -0.09543036 -0.07320941 0.02594205 -0.15825473 -0.07413368 -0.0799404 -0.13865252
-0.037535615 -0.035389658 -0.015158654 0.04319782 -0.1945672 0.045781944 -0.1410112 0.03440584
-0.09786003 -0.024413234 0.07273001 0.007616991 0.09760625 -0.015724625 0.052471347 -0.04352297
-0.12357132 -0.49135545 -0.1270444 -0.17951363 -0.0646492 -0.13978776 -0.03566275 -0.022385675
0.10524894 -0.07008109 0.024843067 0.27335972 0.056098364 0.051633935 0.2103638 0.06841989
0.047459736 -0.08363757 0.0758695 -0.24815813 0.10525368 0.06367325 -0.07484653 0.12010145
-0.12291592 -0.09869818 -0.037767548 -0.01565306 -0.044973053 -0.056313608 0.096929885 0.09267256
0.0002537115 -0.035984356 -0.08558837 0.08263847 0.091626406 0.061098546 0.11580725 -0.059416533
-0.06679961 0.038135096 -0.04924108 0.03194777 0.011144482 0.022377342 0.04371718 -0.0752296
-0.1624288 0.07877324 -0.16061993 0.07208925 0.0014518441 0.010406522 -0.083637044 -0.09642719
0.09436427 -0.032005113 -0.06446441 0.09986783 -0.14179507 -0.13341698 0.071964025 -0.006103798
0.068312414 -0.0038067698 -0.07288411 -0.08707078 -0.0030482905 0.09268297 0.03701319 -0.13260242
-0.05333495 -0.027985584 -0.06360895 -0.008576566 -0.078467384 -0.07439882 -0.09676313 0.0061412114
0.043368753 0.086363494 0.0068595647 -0.056950174 -0.0720052 0.05873631 -0.102780744 -0.12416294
0.033722103 -0.14691506 0.048330866 -0.01949988 -0.1254204 0.09768108 0.032890134 0.08081878
0.072679885 -0.041566294 0.11376533 0.18175384 0.079161935 0.003193244 -0.20267926 -0.26261717
0.20633686 -0.009104086 -0.13778083 0.104190215 0.053330027 -0.09982568 0.1436244 -0.71218675
-0.03965299 0.08234711 -0.08917594 -0.024147442 0.001024946 -0.26093736 -0.11711384 -0.12449487
0.03327748 0.08941391 -0.14192429 0.080603555 -0.072434306 -0.15388249 -0.09820067 0.011333837
-0.07063947 -0.75872487 -0.1540603 -0.020746052 -0.22301006 -0.20958263 0.09543952 0.15070103
-0.08685146 -0.0057140705 0.10576711 -0.7992276 -0.10736597 -0.022812603 -0.82408017 -0.07769742
0.02633936 0.16443732 -0.25062653 0.07106705 -0.0038157243 -0.12503618 -0.027912633 -0.09472306

model.2.bias f4 [128]
00000000: d3b5 bebc a559 a8bb 4925 6abc 6cc1 073e
00000010: 2098 4c3c 8ab5 87bd 7263 dbbd 242f c1bd
00000020: 8d27 b53d b977 223e 66eb 983d cd8d 15bd
00000030: 38df 453d 6a0f 5abc 3b27 b73d 77ad b03d
00000040: 93f7 bb3d a88e 853d f386 0cbd c7f0 933d
00000050: 31c5 54bd b751 7fbd 8376 553d c4dc b73b
00000060: 6411 b2bd 3078 493c 17e7 85bd c8cf c0bd
00000070: d5d6 b43d 8d95 ee3d 2082 e4bb 638a 6f3d
00000080: 3ec1 41bd 0f6c 9d3d b982 d3bd f9ba 3f3d
00000090: e558 c6bd 5b21 f3bd e19b 33bc 8efd b53d
000000a0: 548a 88bd 885f afbb 2b53 043e dbf0 283d
000000b0: 5cf2 e3bc 32a8 243d a884 76bd 8090 7f3d
000000c0: c1db 8fbd 315a 5dbd 479d 86bd 320c dfbd
000000d0: 105f 083e 4853 33bd 469c 223e f571 01be
000000e0: 6cb1 6c3c 83c0 ba3c ee08 dbbc 007f 96bc
000000f0: 64e5 7e3d 432a f0bd c62a 683d 56e0 f3bd
00000100: 8509 dbbd 52eb 07be d6f5 493d d056 3abd
00000110: 3b3e f5bc dc46 79bd 14a8 2dbd 58f4 b93c
00000120: 4114 fa3b b564 56bd b30f debc af8b 98bc
00000130: b88f 103b d1ca 203e 6b5a 7b3c 53ed e1bd
00000140: 6853 773d 5d7e 9ebd 99d3 94bc 2149 183e
00000150: 3114 1cbd 3542 8a3d 23bf 883d f6fa ebbc
00000160: 4a11 2d3d ac29 d93d 2649 9abd 585d f63d
00000170: 6821 a5bb dd89 a6bd d897 d03c cdb4 28bd
00000180: b25a 9bbd e8f5 d6bc efa7 c43d f8d5 bcbd
00000190: a158 f2bd 2b11 4ebd 9901 82bd 50fb bb3d
000001a0: 2c9d 993d 79cf 06be d8cf 16bb eafe 3abc
000001b0: bc61 27bd 4146 0cbe 4e55 dfbd bcc3 12bc
000001c0: b51e 7f3d 503f dcbd 8c31 ffbd 1180 1d3d
000001d0: 2fed 05bd 077e 13be 9661 edbd a129 5a3d
000001e0: e2d7 963c 7808 133d 3af4 943c 6edb b6bd
000001f0: 160a 93bd e4c1 6f3d 295c cdbd 6b65 c13c
-0.02328006 -0.0051376396 -0.014291116 0.13257378 0.012487441 -0.06626423 -0.10712327 -0.094328195
0.08845434 0.15865983 0.07466774 -0.036512185 0.04830858 -0.013309339 0.089430295 0.08626836
0.091780804 0.0652135 -0.034308385 0.07223659 -0.05194587 -0.06233379 0.052114975 0.005611034
-0.08694723 0.012296721 -0.065382175 -0.09414631 0.088300385 0.11649618 -0.00697352 0.058481585
-0.04730343 0.07686626 -0.10327668 0.04680917 -0.09684924 -0.118715964 -0.010962457 0.08886252
-0.06667009 -0.0053519644 0.12922351 0.041245323 -0.027825527 0.040199466 -0.060185105 0.062393665
-0.070243366 -0.05404109 -0.06572967 -0.10890998 0.13317513 -0.043780595 0.15879926 -0.12641127
0.014446598 0.022796875 -0.026737656 -0.018371105 0.062230483 -0.11726811 0.056681417 -0.11908023
-0.10695175 -0.13273361 0.049306713 -0.045492947 -0.0299369 -0.060858592 -0.04239662 0.02269952
0.007631809 -0.052342135 -0.027107095 -0.018621294 0.002205832 0.15702368 0.015341382 -0.11031594
0.060382277 -0.07738946 -0.018167304 0.14871646 -0.038105194 0.06750909 0.066770814 -0.028806191
0.042252816 0.106036514 -0.07533483 0.12029523 -0.0050393827 -0.08131764 0.02546303 -0.04118805
-0.07585658 -0.026240304 0.09602343 -0.09220499 -0.11833311 -0.05030934 -0.06347961 0.091787934
0.07500681 -0.13165082 -0.0023012068 -0.011413315 -0.04086469 -0.13698675 -0.109049425 -0.0089577995
0.062285144 -0.107542634 -0.12460622 0.03845221 -0.0326969 -0.14403544 -0.11590879 0.053262357
0.018413488 0.03589675 0.018182863 -0.08928572 -0.07179658 0.058534518 -0.10027344 0.02360793

model.4.weight f4 [64, 128]
00000000: 040d 2c3d 251f 26bd e9f3 c4bd 3c24 94bc
00000010: a5bd 873d f605 703d 14a2 b33c 5528 883d
00000020: 5f2f 3cbd 5786 1d3e f214 e2bd ba73 0f3e
00000030: b2f3 153e cd42 afbd ef27 2abe d20a 4bbf
00000040: 5241 273c 28aa 813d 761d ef3c a9a8 7cbe
00000050: ec91 8bbd 1ebd 5abd 193a 0f3e 4eda 293d
00000060: 4795 a43c 983d dc3c ea3a 053d 2a72 853d
00000070: 530b 9b3d b61c c53d 8005 6ebd 144d 443d
00000080: 97c3 41be 1d5a 893c 47a7 b63c b72d 263e
00000090: 8998 903c a47e f8be f96b 80bd 772d dfbe
000000a0: 76ff 9f3d e614 4d3d 7688 9c3d fb7d 993d
000000b0: 5b2c fd3d 6396 103e 503b 2abd 5066 853b
000000c0: e7b1 203d e921 323e bade 7f3d 8254 383d
000000d0: e30b 863e 9026 563c 14cc 7fbc c7ef c13d
000000e0: 8f40 13be 5aba 313e 2a22 3abf 6ed8 2d3d
000000f0: c324 eb3d d021 79bd 6a1b 2b3d 9464 d6be
00000100: e3ac 72bd 00cf fc3c 3dd3 3fbd cead e63c
00000110: 0802 78bc e737 a33d 4fa3 e33d ff07 5abf
00000120: 2ef5 c93d 53e2 d43b 3322 e4ba 5f56 7c3d
00000130: caac 9b3c b35a df3d d020 123d db7c e33d
00000140: becf 673d 4b07 673a 035d 2a3e 0deb 513d
00000150: ad7a 403e c744 003e e217 283d 272c 233d
00000160: e2c6 1ebd 45d8 bfbd 56bc 17bd 1785 98bd
00000170: 1d3a 2fbd 365b ed3c 8390 73bd cea3 213d
00000180: 124b 3f3d 5e14 a73b bc5f 41bd 69e8 a43d
00000190: eca6 8fbc 9de8 603c 66f1 5ebd fc1b 7abd
000001a0: de30 ee3d d971 9dbd e705 b0be 3222 c23c
000001b0: eaff 603d 482a 74bd 770d c6bd 0a42 233d
000001c0: f145 bc3c 7abd cdbc 307c b43c 703c df3d
000001d0: 10d9 01be eb47 663d 59e0 adbd 39bf 2fbe
000001e0: fa34 0a3c 8c5d 3abe 560b 053c 5752 fd3d
000001f0: 31fb d43c 8e62 093d f8ac 653c 01d6 563d
00000200: 9e0c bc3d 7a85 353c 9843 1bbd 75e8 ccbd
00000210: 64b5 083d 949c d63c f710 913d b01d 9c3d
00000220: 90a4 a93b d6be 97bd 48d0 243e 26cf 24bc
00000230: 9c6d 9b3d cfb7 9b3c f9d7 953d eacc a83e
00000240: 2eab 213d c8f8 103d c869 a7bd 681c a13d
00000250: 893f 663d d276 81bd a337 d83d 2029 2bbb
00000260: faf6 503d 40da c73c e356 ff3c cdbc 79bd
00000270: 365e b53c 41f4 17bb 6872 883c 780d e2bb
00000280: 26da b83c e795 963d 18b6 973b 73ef f43d
00000290: bf0b 033d d24a 52bf 6d96 23bd 059b 7cbf
000002a0: 1dc7 943d 8611 513c f087 92bc fdd0 d4bd
000002b0: 0688 32bd 75fb 863b 9055 e3bc b810 923c
000002c0: 3ba3 4d3d ffef f5bd bcb1 01bd 11f1 a43d
000002d0: 5b46 b2be 2e4f 443d 2717 053e 1033 1cbc
000002e0: 4899 c6bc b8e6 7ebe b7b2 d4bd 8e41 0abd
000002f0: b9f7 693d ff78 7ebb e3e2 92bd 2e15 6fbf
00000300: bed2 dfbc b81a 7bbc 5dab 923d 0d94 463d
00000310: f204 8a3d de4e 513d 4664 9bbd 6c00 d23c
00000320: ddaa c63d c01f 79b9 9473 adbc 2e40 913d
00000330: fc5f c23d d32c ae3d 7c51 6abe 1d7c 0cbf
00000340: 2017 703c a790 14bb 2b3a 27bc 4dd2 fcbc
00000350: 4a96 9b3d 81e7 21be 9803 68bd 9a27 f3bc
00000360: c6ea 393d 0450 1b3e cf42 133c a0ae 3cbd
00000370: e66d 51bb c4b9 c13d 941c ae3d d5dc 013c
00000380: 891f a83d 7ec4 cf3b edf1 f73c 92b7 febc
00000390: 846a cc3c e403 72bd ea9b cc3d ebfe bfbd
000003a0: ff70 74bd a5dc d33c 5e9e ed3d 267f bfbc
000003b0: 765c 2b3d c638 b8bb 52f6 babd 80e1 aeba
000003c0: 15be 2d3d 2a50 dd3c 984d 9cbd 1c29 0bbd
000003d0: 1d7a 47bb dd1f 68bd b67d 023d db9c f13c
000003e0: 2472 a3bd 3bbd 26bd 9649 813d 541a b83d
000003f0: 4a4b 3cbd 88ee 043e bbef 53bc 1442 cc3d
0.0420046 -0.040557045 -0.09616835 -0.018083684 0.06627969 0.058599435 0.02192787 0.06648318
-0.045943614 0.15383278 -0.11039151 0.1400899 0.14643744 -0.08557663 -0.16616796 -0.79313385
0.010208445 0.06331283 0.029188853 -0.24673714 -0.06814942 -0.053403012 0.13987006 0.041467957
0.020090712 0.026884839 0.032526888 0.06515916 0.07570519 0.09624617 -0.058110714 0.04792507
-0.18922268 0.016766602 0.02229656 0.16228376 0.01765086 -0.4853412 -0.06270594 -0.43589374
0.07812397 0.05006876 0.07643215 0.07494732 0.12361976 0.14119868 -0.04156047 0.0040710345
0.03923216 0.17395748 0.062468268 0.045002468 0.26180944 0.013070717 -0.015612621 0.09469562
-0.14380096 0.17356244 -0.7270838 0.04244273 0.11481621 -0.06082326 0.04177419 -0.4187361
-0.05924691 0.030860424 -0.046832312 0.028159048 -0.015137203 0.07969647 0.11115133 -0.8516845
0.098612174 0.0064967065 -0.0017405212 0.061605807 0.01900329 0.109059714 0.035675824 0.11107799
0.056594603 0.00088130374 0.16637044 0.051249553 0.18796797 0.12526236 0.0410384 0.03983703
-0.03876389 -0.09367422 -0.037044846 -0.0744726 -0.04278003 0.028974157 -0.05946399 0.039462857
0.046702452 0.0050988635 -0.04721044 0.08052141 -0.01753565 0.013727334 -0.054429434 -0.061061844
0.116304144 -0.0768773 -0.34379503 0.023697946 0.05493156 -0.059610635 -0.09670537 0.0398579
0.02298257 -0.025114764 0.022031873 0.109001994 -0.12680459 0.05622093 -0.084900565 -0.1716279
0.008435482 -0.18199748 0.0081203785 0.12369221 0.025998684 0.033541255 0.01401829 0.052450184
0.09182094 0.011079187 -0.03790626 -0.10005275 0.033376113 0.02619771 0.07083314 0.0762285
0.005177088 -0.07409446 0.16095078 -0.010059154 0.07589266 0.019008545 0.07316584 0.32968837
0.03946989 0.035393506 -0.08174473 0.07866746 0.056212936 -0.06321491 0.10557487 -0.0026117042
0.051016785 0.024396062 0.03116936 -0.06097107 0.02213965 -0.0023186358 0.016656116 -0.0068985783
0.022564959 0.0735281 0.0046298616 0.11959734 0.031993624 -0.82145417 -0.03993838 -0.9867404
0.0726454 0.012760526 -0.017887086 -0.10391424 -0.043586753 0.0041193315 -0.02775076 0.017830238
0.050204497 -0.12008666 -0.03166364 0.08053792 -0.34819302 0.047927074 0.12997113 -0.009533659
-0.024243012 -0.248927 -0.1038565 -0.033753924 0.057121012 -0.0038829444 -0.071721815 -0.9339169
-0.02732217 -0.015326194 0.07161591 0.048481036 0.067392245 0.051100604 -0.07587485 0.025634967
0.09700558 -0.00023758318 -0.021173276 0.070923194 0.09490964 0.08504643 -0.22882646 -0.5487688
0.014653951 -0.0022669227 -0.010206739 -0.030861998 0.07597025 -0.15810968 -0.056644052 -0.02968197
0.045389913 0.15167242 0.008988096 -0.046064973 -0.0031956374 0.0945926 0.085015446 0.007926186
0.0820914 0.0063405624 0.030266726 -0.031093393 0.024953134 -0.05908574 0.09990676 -0.093747936
-0.059678074 0.025862047 0.11602472 -0.023376059 0.041836224 -0.0056220023 -0.09129013 -0.0013342351
0.042417604 0.027015764 -0.07631987 -0.03397475 -0.0030437775 -0.056671012 0.03185817 0.02949374
-0.07980755 -0.040707808 0.063128635 0.08989397 -0.04597024 0.12981617 -0.012935574 0.09973541

model.4.bias f4 [64]
00000000: f0f1 88bd 1586 9e3d c606 6e3d 27ec 3bbd
00000010: dd2e 403d f161 543c b3b4 10bc c63b 29bd
00000020: 5d19 adbd 199a e7bc 5e82 14bd 5c20 c4bc
00000030: 500e 0bbd b672 b7bb 2b3b 1d3e 8a17 a23d
00000040: ee5e 7cbd f3be 193d a4f4 4d3d 5dc5 a83d
00000050: 1f50 e53d 47f8 01bd af5f f23d c45f fcbb
00000060: 2fbb 0f3d df65 183c 37e6 3a3c 66ba 9dbc
00000070: 06b3 1abd 489f d73d a847 a23d 74d3 0dbe
00000080: fddd d03d 4294 e43d 8be1 fa3d 77c6 e83d
00000090: c9b7 e93a 4ee8 a53d e4c6 723d 7f62 823c
000000a0: db55 963d 8a2f b5bc 4991 c5bd 90b9 a33d
000000b0: 8124 41ba 6ce9 4f3d 34c2 553d 7b62 043d
000000c0: 09a4 edbc 4f09 be3d 27f3 303d f4ee 3d3a
000000d0: 8ae7 1a3d 536a e83d f7ef 0a3e cad5 ea3d
000000e0: c648 aa3d 5924 4cbd 8985 803d 0da6 54bd
000000f0: e294 59bd d5d1 053c 0cc3 973c 1f16 813c
-0.06686771 0.07740418 0.05811193 -0.04587951 0.046919692 0.012962804 -0.008832145 -0.04131677
-0.08452103 -0.028271722 -0.03625714 -0.023941211 -0.033949196 -0.0055983914 0.15354602 0.07914646
-0.06161397 0.03753562 0.050282136 0.08240769 0.111969225 -0.031730916 0.118346564 -0.007701846
0.03509062 0.009301632 0.011407427 -0.01925392 -0.037768386 0.10528427 0.079238236 -0.13850194
0.10198591 0.111610904 0.1225005 0.11365979 0.0017831262 0.08100949 0.059271708 0.015916107
0.073405944 -0.022117395 -0.096468516 0.079943776 -0.0007367805 0.050759718 0.05218716 0.03232048
-0.029008882 0.09279119 0.04320064 0.00072453846 0.03781847 0.11348405 0.13568102 0.11466558
0.08314662 -0.04983935 0.0627547 -0.05191617 -0.0531205 0.008167704 0.018525623 0.015757618

model.6.weight f4 [1, 64]
00000000: f8df 983e 1702 dcbd 98b5 a0bd 308c bfbd
00000010: db85 12be e067 72bc 3c49 94bd 743a 2d3d
00000020: b6a7 4cbd 24d9 9e3c cb21 07be ce8b 53bd
00000030: 7925 363e 89e8 4a3d ca94 943f f3bf b83c
00000040: 3a32 d3bd b537 c7bd 6448 09be 7970 88be
00000050: d794 16be 4198 0dbe 8219 ec3d baeb 99bd
00000060: bf3e a4b8 2a45 89be ea62 423e 95a6 86bd
00000070: f737 d5bd 5e42 4fbe 974a 42bd d678 3a3d
00000080: e842 083e 971d 8f3d 6f90 24be d9c4 a03d
00000090: 5a38 f43d 5b67 d2bd fafc 12bd a5b4 04bc
000000a0: 5019 153e ee8d 20be 72de 78bc 2ce3 19be
000000b0: edcb 943b 5dec e4bd b629 48be 7ab8 5bbe
000000c0: 3f68 1abd bc4c 163c f8c0 fbbd 760e bb3c
000000d0: 2a54 5cbc 790a 033e 48dd 163e d5dc 373e
000000e0: 72d5 b0bd 763b 4dbd d756 a33d ac10 82bd
000000f0: f695 b83c 8346 edba 7404 70bd 5663 663b
0.29858375 -0.10742586 -0.07847136 -0.093529105 -0.14308874 -0.014795274 -0.07240531 0.042292073
-0.04996463 0.01939065 -0.13196485 -0.051647 0.17787732 0.04953817 1.1607907 0.022552466
-0.10312314 -0.09727422 -0.13406521 -0.2664831 -0.14705215 -0.13827612 0.11528303 -0.075156644
-7.831817e-05 -0.2681058 0.18983045 -0.06574742 -0.10411065 -0.20240161 -0.047434416 0.045525394
0.13306773 0.06988066 -0.16070722 0.07850046 0.11924811 -0.1027362 -0.03588579 -0.00809971
0.14560437 -0.15679142 -0.015189754 -0.15028065 0.0045409114 -0.11177895 -0.19547161 -0.21457091
-0.037697073 0.009173568 -0.12292665 0.022834044 -0.013447801 0.12796964 0.1473285 0.17955334
-0.086344615 -0.050105534 0.07975548 -0.06350836 0.022532444 -0.0018102679 -0.058597997 0.0035154424
